model_fish.pt (torch, 162959 bytes, 15 tensors)

c_fc4|weight f4 [128, 128]
00000000: c51e 603c bfc1 7a3d d984 81bd 8518 243d
00000010: a75b 8eba 2f63 b9bb de92 0abd f734 4f3d
00000020: f915 2abd 435d 64bd 28a3 153d 98f1 8fbc
00000030: cc99 893c 65f8 a03d b2a4 0a3d 5cfc c33c
00000040: 50ac c5bd 0cc8 57bd c4d3 b13d e1ac 0cbd
00000050: 5abf 11bd 38d8 85bc 914a 01bd bde1 743d
00000060: 35cd a53d c3e5 053d 0bbf 1dbd ea29 97bd
00000070: adff 05be 3432 00bd e50c 123d 1fa1 2cbc
00000080: 1b8e 073d fe24 81bd 8980 1e3d 84d4 e1bd
00000090: 372c 9c3b 529a cdbd e9c2 033c b640 3c3d
000000a0: 1f3a 5dbd 828c 5bbd 61b2 2ebd 9686 49bc
000000b0: f927 aebd 0992 bcbc 1ee2 4fbd a572 b7bd
000000c0: a61c db3d f195 a53c a5f8 a5bd 5a11 2cbd
000000d0: 107e 18bd 0a35 44bd 4d18 8d3d 95b7 d03c
000000e0: 81c4 cfbc 869f 363d aab5 56bd 75e9 10bc
000000f0: 99ec d6ba 62dc e03b 067a b3bd 163a 6e3d
00000100: ff26 f0bc ed13 89bc 438e c73c c9f0 21bd
00000110: f2ad 87bd 07fa 873d d0df 0abd 3d1d a3bd
00000120: 9008 a8bc 8174 d83b c35f 6d3d a96c 0f3d
00000130: 6204 aa3d 650d 5f3c 1a3a 4cbc 83f2 5bbd
00000140: 115e 28bc d97b b23d 8355 523c eb7f cabd
00000150: 8465 0a3d b23a 88bd 65ff 373c 88bf 3f3d
00000160: bbc4 323d 6d64 18bd cdbf 483c 1433 41bc
00000170: ddcc b93d 0dd1 dd3d c333 6dbc 3277 a7bc
00000180: 365e 76bc 88c6 74bd d581 21bd d1ab 353d
00000190: 7a7d 583d 93c0 8f3d 6efd 22bd 7fb2 e7bd
000001a0: 6f50 083d 33a2 8fbd f87d a03d 4cd7 dc3c
000001b0: d669 b4bd c763 103d 0514 aa3b 72f1 9a3d
000001c0: 9a63 273c 358b 82bd 7f5f 073d f8c8 8f3c
000001d0: 0a12 93bd ba06 e33c d7d2 e6bb ca32 45bd
000001e0: d584 18bd 4b4b 693c a5cc aa3d 9dc2 f03c
000001f0: cccc eebc 0a13 333d 87ce 30bd e8e1 54bd
00000200: f44f a63c fbf5 b6bd 1d4d d33d 85f7 7cbd
00000210: 2d8f ea3c 73ab e03d de0a 59bd c305 a53d
00000220: a9c0 be3d 021d b53d dbd0 48bd 67b8 94bd
00000230: adef d4bd ba43 8d3d 218e 483c 3d7b 3c3c
00000240: 55ee b33c d584 00bd cb90 143c 7c40 d43d
00000250: 6fdc adbd 94e8 aabd 3ee0 84bd bdbe 653d
00000260: 0f80 3bbd 735b b33b 9e37 9dbd bc1d 6a3d
00000270: e606 8f3d 226f 1ebc 49f8 bc3c f69f be3b
00000280: 5386 7dbc f90d 173d 8a47 833d 20e2 4b3d
00000290: 8ec0 60bd ce59 903b b00c 813c 9857 223d
000002a0: 2614 c33c f6eb 71bd a499 2cbd 8957 9b3d
000002b0: 9cf4 cabb 285b b33c 7b82 623d f3e1 a43d
000002c0: e89c 1ebd 7b11 ee3c f5b5 8e3d cf37 8c3c
000002d0: 41a0 b03d a4d0 35bd 5c02 e23c b5cd f1bc
000002e0: 2fe5 35bd 9b79 14bd 3037 2f3d 4e93 06bc
000002f0: aeb8 533d dca5 a3bd 339f 893d a77c aabb
00000300: 8684 dabb 8686 7c3d c420 cd3d 60db b23d
00000310: 8697 8dbc ac2b debc df61 ab3c ae70 f53c
00000320: b34f 9e3d ef8b 033d 7856 02bc 022d 3f3d
00000330: e521 1bbd f64e f1bd 2cb9 9e3d a449 0cbc
00000340: 96ff 0c3d b8e0 de3c 6589 39bd dc58 8d3d
00000350: 5a8b 5ebd bd06 f9bc e8fc 85bd a5cd 3bbd
00000360: 9b71 ae3c e958 ed3c 55f3 773d f9f2 ffbc
00000370: 9fe8 0abd af46 a2bb 21a1 acbd 96d0 0bbc
00000380: b4c0 3f3d 9df7 29bd ae04 9b3c 7e05 80bd
00000390: 9ae7 c6bd ae93 0bbc 5883 513d 5c09 99bc
000003a0: 1aaf d43d 73cb 0e3b 5e7b c4bd 66ea 9fbc
000003b0: 8ba5 39bd bb06 aa3b 0958 3b3d 3e30 89bd
000003c0: dc69 a33c 71f5 b0bd dc4a 29bd dfb9 37bc
000003d0: de0c 953d 9e1c 963d dad1 b23c 24f7 0abd
000003e0: 7498 8abc 2600 84bc 8665 a1bd 2deb 4a3d
000003f0: 7945 01bc f6e5 9f3d 71ce f73b 0e03 823d
0.013679211 0.061219927 -0.06324167 0.040062446 -0.0010861055 -0.0056575756 -0.03383147 0.05058762
-0.04152486 -0.055753004 0.03653255 -0.017571256 0.016796969 0.078598775 0.033848472 0.023924045
-0.096520066 -0.052681014 0.08682969 -0.034344558 -0.035582878 -0.016338453 -0.031565253 0.059785593
0.08095781 0.03268982 -0.03851227 -0.07381041 -0.13085814 -0.031297877 0.03565683 -0.010536461
0.033094507 -0.06305884 0.0386968 -0.11026862 0.004766013 -0.100392 0.008042076 0.04596015
-0.054010507 -0.053600796 -0.042650584 -0.012300154 -0.08503718 -0.023018854 -0.05075275 -0.089574136
0.10698824 0.0202131 -0.08104066 -0.042008735 -0.037229598 -0.047902144 0.06889401 0.025478164
-0.025362255 0.044585727 -0.052419342 -0.008844723 -0.0016397416 0.006862209 -0.087635085 0.058160864
-0.02931547 -0.016733134 0.024359828 -0.03953627 -0.06624974 0.06639486 -0.03390485 -0.07964561
-0.020511895 0.006605685 0.057952654 0.035015736 0.08301617 0.013614033 -0.012465024 -0.053698074
-0.010276333 0.08715028 0.01283777 -0.0988768 0.03378822 -0.0665182 0.011230324 0.046813518
0.043644648 -0.03720515 0.01225276 -0.011791963 0.09072278 0.10830889 -0.014477673 -0.020442579
-0.01503711 -0.059759647 -0.039430458 0.04435331 0.05285404 0.070191525 -0.03979247 -0.11313342
0.033279832 -0.07013359 0.07836527 0.02695813 -0.08809249 0.035251405 0.005190375 0.07565583
0.010216618 -0.06374208 0.033050057 0.017551884 -0.07181175 0.027713168 -0.007044177 -0.04814414
-0.037236053 0.014239143 0.08339814 0.029389674 -0.02915039 0.04371933 -0.04316571 -0.051973253
0.020301796 -0.08933636 0.103174426 -0.06175949 0.028632725 0.10970201 -0.05298888 0.080577396
0.09314091 0.088434234 -0.049027305 -0.072617345 -0.10397277 0.068976834 0.012240917 0.011503992
0.021964232 -0.03137668 0.009067724 0.10363862 -0.0848931 -0.08345142 -0.06488083 0.056090105
-0.045776423 0.005473548 -0.07676624 0.057157263 0.06983738 -0.009670051 0.02306761 0.0058174087
-0.01547392 0.03687856 0.06410129 0.049776196 -0.054871134 0.004405237 0.01575312 0.039634317
0.023813318 -0.05906292 -0.04213871 0.075850554 -0.0061937105 0.021894053 0.055300217 0.08050909
-0.038723856 0.02906107 0.06968299 0.017116455 0.08624316 -0.04438843 0.027589016 -0.029517034
-0.04440802 -0.036248785 0.04277724 -0.008213831 0.051689796 -0.079906195 0.06719818 -0.005202848
-0.00666863 0.06165173 0.10016015 0.08733249 -0.017284166 -0.027120434 0.020920692 0.029960956
0.07730045 0.032115873 -0.007955186 0.046673782 -0.03787412 -0.11782639 0.077501625 -0.008562479
0.034423433 0.027206764 -0.045297045 0.06901714 -0.054332115 -0.03039872 -0.06542379 -0.045850415
0.021294406 0.02897306 0.060534794 -0.031243788 -0.03391325 -0.004952274 -0.084291704 -0.0085336175
0.046814635 -0.041495908 0.01892313 -0.062510476 -0.09712143 -0.008519096 0.05115065 -0.01868122
0.103849605 0.0021788746 -0.09593843 -0.01952095 -0.04532389 0.0051887906 0.045738254 -0.066986546
0.019947939 -0.08640564 -0.041331157 -0.011213749 0.07277845 0.07329677 0.02182858 -0.033927098
-0.016918398 -0.016113352 -0.07880692 0.049540687 -0.007890099 0.078075334 0.0075624515 0.06348239

c_fc3|weight f4 [128, 20]
00000000: 3459 2e3e e2db e93d b79f 67be 44d5 eb3d
00000010: 2d04 3bbe a153 113d d776 6839 f7ae 0abe
00000020: 268d 423e 3280 933d 9191 183e c9e9 703e
00000030: 741c 80bb 6740 bb3c ae68 23be 9282 cebd
00000040: 45f0 3fbe 8562 c4bc 1499 58be 4c90 693e
00000050: 457c bfbd 836d 3fbe 34ff 013d d8d6 ac3d
00000060: cba6 18be a1e7 29be d899 c6ba 5ab5 96bd
00000070: 46fe 1abd 50f6 8f3d 0e07 cf3d b089 4d3d
00000080: 42b6 20be bcc1 af3d a8e5 32be c439 5bbe
00000090: 3b88 d93d b94c b33d 6257 ee3d 8f2c 013e
000000a0: 3afc a33d f7ac 333e 68e2 27be 6ccf 06be
000000b0: 4798 f4bd 304e 14be 0483 353e 3a75 753d
000000c0: 59d4 2f3d 9f2f 0abe 4e4d 3bbe 1249 72be
000000d0: d715 86bd a104 643e 5e10 2dbb 3419 263e
000000e0: 741f 9e3d a4aa 49bc c201 51be ca16 063e
000000f0: 025e b1bd 11fd 38be 5ff3 21be 3616 4abe
00000100: ed1b 9fbc 2c8d 7cbd d7fa 4bbe 0b71 063d
00000110: 62b6 15be 3c2a a93d 5628 4dbe 1e0a 083e
00000120: e69b ca3d 70c4 65bd 387b d6bd 4481 403e
00000130: 4866 44be 1a44 683e 575e 563e a754 d63d
00000140: e00a 263d d42a 183e 6ea0 ae3b d193 7a3d
00000150: 4ab7 05be 8632 acbd 2c08 403e c0f1 0a3d
00000160: 90b0 38be c481 96bd b01e 3ebe a4a8 88be
00000170: bb2c 1e3e daca 113e b3d9 0a3e 72cc 9cbd
00000180: 4a85 34be 1a37 62bd 95e2 603e 730b a23c
00000190: 02c0 313e c170 103e 88dc 3cbe c115 bb3d
000001a0: 0897 ec39 9aa8 1f3e ddcb e4bd 5b8c 8b3e
000001b0: 79f3 61be eee8 04be 76dc 4f3e 53c9 8bbe
000001c0: f961 5f3e 898e fc3d 63d9 c2bd e8d6 503b
000001d0: 3e34 bebd 8e09 94be f3b2 e13d e0b8 ab3b
000001e0: 88e9 45be 4bf3 0cbe a708 4c3e 0532 af3d
000001f0: 17bb 37be 6977 143e 1632 563e ec41 3e3e
00000200: 8a6b 5dbd 75e7 a4bd 1bef e8bc 69cf 023d
00000210: a0ee 683d 55c0 cdbd 86c9 233e d2f3 ed3d
00000220: 6887 663d 3ad1 4e3d ba00 143e 9aef 63bd
00000230: 6cce 8fbd cafa 0c3d 602c d63c 4da8 7a3d
00000240: 90fa a5bb c2b5 2ebe 77ff dabb 3a7e 0b3e
00000250: d828 0e3e 28c6 fd3d 56e9 20be c529 7ebe
00000260: e50f dfbc 3fb3 63bd dc2e bb3d b84e 82bd
00000270: c98f aebd 2af1 4d3d 1b7b 663e 2479 3bbe
00000280: 4c6b 51be ae1f e63d 8ea9 97bd d8c0 f7bd
00000290: e68f ce3d a504 883a b666 553e 349c 81bd
000002a0: b92b 4ebe 0637 64bd 1763 a0bd f3ce 84be
000002b0: 36eb 553e 4e68 3dbe af22 9b3e d4f5 63bd
000002c0: c50d b8bd 1116 333d 1848 85bd b0af 823a
000002d0: 29a9 c5bd c30a 693d 404f 05be 1d16 5e3e
000002e0: 5edd d83d e7f6 5bbc 6e4b f03d ac2f c5bc
000002f0: 3b1f fc3c dc7f 163e 4e33 2b3c d3ce c43c
00000300: 0370 3fbe b2a8 26be b21c adbd 6840 473e
00000310: b124 0cbe f4b0 f53d 9cdb 413e cdb1 703d
00000320: db2a d4bc acd2 1a3e f6f8 d73d 91bb 253e
00000330: 6414 95bd f9e9 ce3d fccd d0bc 54af b0bd
00000340: 1878 933d 35d8 373e b09e adbc df2f 943e
00000350: 98e6 1e3e 6666 453e d8af 003e 3045 b7bc
00000360: a4d3 253e cf05 dcbc 8002 bcbd feb6 46be
00000370: d203 22bc 236c 49be 053d 34be 0704 e2bd
00000380: 81eb c1bc a790 883b 8b1f 6cbc 843a 13be
00000390: cdc1 adbc 40ec c9bd 9a99 82bc bde9 663e
000003a0: 3775 ac3d ca0b 643e 8316 d7bd e8ac 3c3d
000003b0: e094 41be 930a 813e ce61 90bd 488c 9cbd
000003c0: 38b7 ad3d 6b60 9d3c d555 23be 7c57 193e
000003d0: 8edd 0fba 6b4b 513d beb3 49be e11c c9bd
000003e0: e406 2fbe f1b0 1abe 2452 363c 6534 553e
000003f0: 7576 093a eb6e 02be 2208 3e3d cf73 413e
0.17026216 0.114188924 -0.2261952 0.115152866 -0.18263312 0.035480145 0.00022169515 -0.13543306
0.18999156 0.07202186 0.14899279 0.23526682 -0.003909642 0.022857858 -0.15957901 -0.10083498
-0.18744 -0.023972759 -0.21152145 0.22808951 -0.093498744 -0.18694119 0.03173752 0.08439416
-0.14907376 -0.16592266 -0.001515205 -0.07358809 -0.03784015 0.07029402 0.101087674 0.050180137
-0.15694526 0.08581874 -0.1747042 -0.21408755 0.10621687 0.08754868 0.11637761 0.12614654
0.08007093 0.1754645 -0.16394961 -0.13165063 -0.11943107 -0.14482951 0.1772576 0.05992625
0.04292712 -0.13494729 -0.18291208 -0.23660687 -0.06547134 0.22267391 -0.002640746 0.16220552
0.07720843 -0.01230875 -0.20410827 0.13094631 -0.08660509 -0.18065287 -0.15815495 -0.19735035
-0.019422496 -0.06165807 -0.19919907 0.03282265 -0.14620355 0.08260009 -0.20034918 0.1328511
0.098930165 -0.05609554 -0.10472721 0.18799311 -0.19179642 0.22682229 0.20934425 0.10465365
0.040537715 0.14860088 0.0053291833 0.061176125 -0.130582 -0.08408074 0.18753117 0.033921957
-0.18036103 -0.073489696 -0.18566394 -0.26691163 0.15446751 0.14237538 0.13559608 -0.07656182
-0.1762897 -0.05522833 0.21961434 0.01978085 0.17358401 0.14105512 -0.18443501 0.091350086
0.00045125955 0.1559166 -0.11171696 0.2725552 -0.22065534 -0.1297948 0.20298943 -0.27302036
0.21814717 0.12331874 -0.095141195 0.0031866375 -0.09287308 -0.2891354 0.1102046 0.0052405447
-0.19327366 -0.13764684 0.19925176 0.08554462 -0.17942463 0.14498676 0.20917544 0.18579835
-0.054057635 -0.080519594 -0.028434327 0.031936083 0.056868196 -0.1004645 0.15994844 0.11618771
0.056281477 0.050492503 0.14453402 -0.055648424 -0.07021794 0.03441886 0.026144207 0.06119566
-0.00506527 -0.17061523 -0.006683286 0.1362237 0.13882768 0.12391311 -0.1571401 -0.24820621
-0.027229259 -0.055590864 0.09139797 -0.06362671 -0.085235186 0.05027882 0.22507899 -0.1830793
-0.20451087 0.11236511 -0.07405387 -0.12097329 0.1008604 0.0010377361 0.20839962 -0.063286215
-0.20133866 -0.055716537 -0.078314 -0.2593914 0.20890507 -0.1849682 0.302999 -0.05565436
-0.08987001 0.043722216 -0.065078914 0.0009970572 -0.09651405 0.05689503 -0.13018513 0.21688123
0.105890974 -0.013425565 0.11733137 -0.024070583 0.03077661 0.14697212 0.010449244 0.024024403
-0.18695073 -0.1627529 -0.08452739 0.19458163 -0.13685872 0.11996642 0.1893143 0.058763314
-0.025899341 0.15119427 0.105455324 0.16184832 -0.0727928 0.101032205 -0.025488846 -0.08627191
0.072006404 0.1795357 -0.021193832 0.28942773 0.15517652 0.19277343 0.12567079 -0.022371858
0.16194016 -0.026858239 -0.09180164 -0.19405743 -0.009888606 -0.19670157 -0.17601402 -0.110359244
-0.023671867 0.0041676345 -0.014411817 -0.1437779 -0.021210575 -0.09859514 -0.015942384 0.22550102
0.084207945 0.22270122 -0.10502341 0.046063334 -0.18904448 0.2520338 -0.07049905 -0.07643944
0.08482212 0.019211015 -0.15950711 0.14974779 -0.00054880313 0.051097315 -0.19697472 -0.09819961
-0.17092472 -0.1510656 0.011127982 0.20820768 0.0005243787 -0.12737624 0.046394475 0.18891834

c_fc_pi|weight f4 [16, 128]
00000000: dab2 49bc a734 ddbb 8469 123c a4bc e63c
00000010: 424c 513c 1764 553c 231d 81bc 95c2 573c
00000020: 9528 c2bb 7161 d03b ca83 0abd 7fad 6aba
00000030: 936f f33a bb51 f33b d7a6 febc cbb9 78bc
00000040: f444 833b 13a0 143c 933e 4a3b f375 1fbd
00000050: 7e84 8b3c bf5e 94bc 175d 15bc 0d6c d3bc
00000060: 5be8 8abc a055 1cbc 0291 923b 59e0 f7bb
00000070: d01e 31bc 584c 0abc 7fb8 b0bc 53fb 34bc
00000080: 9fe4 1cbc 50f5 85bb 3080 98bb 05ad 193c
00000090: 5329 efba e8fa 4dbc a7b8 20bc 789f e0bb
000000a0: c144 8ebb 35b7 833c 1fac 97bc d67c 393c
000000b0: 3d17 36bc d071 043d b333 fc3c b2d9 0b3c
000000c0: 8659 cf3b f7bf 8bbc b2f8 243c 012d acbc
000000d0: 5833 013d 9f36 ff3b 58a7 143c 7a67 99bc
000000e0: 168b c7bc 2f17 5e3b 9bd3 eb3c bd66 1d3c
000000f0: 4c5f 68bc 9d32 c7bb b003 1abc ea06 deba
00000100: fac3 d6bb a5fd 0a3d 7788 ae3a 4086 393c
00000110: 9ed8 b5bb 0fde 26bb e67f 33bb af9e 6bbc
00000120: 3176 4fbb 1db6 0dbd 48fd ceba b3d9 acbc
00000130: 9481 1dbb 815b 86bb faeb 25bc c855 e5bb
00000140: 82da 3fbc e259 c83c b844 51bc 13a0 14bc
00000150: 7d7f c0ba c355 0b3c c28b 7abc ff0c 1f3b
00000160: a59d 0bbc e1ff 8d3c c5d0 ab3b a0cd 73bc
00000170: 3896 52bc 8a56 34bc e5d3 cc3c dfc7 e7bc
00000180: b194 a2bc 46f0 82bc e11e dabb 8e4a 47bc
00000190: 2f48 67bc 374c 543b 8421 50bc d360 abbb
000001a0: 1f85 913b f66e c3bb ab64 81bc 480e b6bc
000001b0: 0c12 8bbc 3cb1 15bc 31d6 0d3b 1059 2fbc
000001c0: a68a 343c 0c39 4cbc 18d1 02bd 4ffa 3ebc
000001d0: 5705 41bc 547c cd3b 5a43 a3bc 0ea7 74bc
000001e0: a3b9 1fbc 0331 81bc 68a9 653c f9f9 b4bb
000001f0: 3c7f 62bb 9272 953c ab1d 7bbc 87a5 62bc
00000200: ec90 253d e89c 7c3d eff3 153c 7d23 cdbc
00000210: 52d4 35bd 4635 8dbd aad9 cb3c df17 54bd
00000220: f943 a73d a546 59bd 6e0c 6abc 888f e03c
00000230: ec7e 2d3d 57a5 2bbc 8839 cc3c 5d69 043d
00000240: ea80 d8bd 6bf9 143d 442e b6bc ad9a e1bb
00000250: 0d78 4cbc 75e1 58bd 97ed 95bd bbc1 363d
00000260: 1759 c73d 5f4d 1f3b 3f26 383c c340 a33d
00000270: 3798 ad3d 83ca ad3c de20 4b3d 87eb 693d
00000280: f67d 4c3d 4370 8a3d f994 fdbb 76af 30bd
00000290: d05f cb3c 6380 453d 0c39 14bd 0d16 423d
000002a0: 6d1a 483d a6be bcbb bc1d b73d 6a52 57bc
000002b0: 35aa e13b 15c2 c5bc df27 b7bc 3e36 013d
000002c0: bb43 543a f92a 963d e98e 95bc 2c36 383d
000002d0: 8baf 9b3c d587 0f3d 2b76 553c eb1c 1a3d
000002e0: b1f5 71bd 5c62 b7bb 7cc1 a6bd ba42 843d
000002f0: b1fc d73c 0708 6fbb 2c9b f9bb 675f 34bd
00000300: 3dc9 fb3c 2315 8b3d 5b72 093c 743b 26bc
00000310: 60f9 8dbc e700 0c3c 1850 0cbd 226a fb3c
00000320: f090 4f3d 1433 c53d ded2 5bbd 95a8 9e3c
00000330: 353c 693c 68f9 6b3d 42be 913c cb27 8f3d
00000340: 6811 b63d 94de 633d b18a 023c 9648 883c
00000350: 8a50 013c 7198 b8bd 1f98 863d 01fa 853d
00000360: ac55 2abd db92 563d 9a59 cc3b b745 2d3d
00000370: 271c 573d a2e2 a63d 556f 8d3d 231f 84bd
00000380: 8c1d 19bd 0a6d 193c ae3e 593d e03d 263d
00000390: 9740 0b3c 86a5 6bbc 848b 8a3c 01dd 1b3d
000003a0: dc78 4c3d 9776 923d dc02 afbc 8266 81bc
000003b0: 936c df3c 4179 053d bf5a e13b 7fe3 92bb
000003c0: 5ae4 453d 4dab 2f3d 0860 ce3d 292c a83d
000003d0: 7f91 f6bc 0576 923d d66e 90bc 2edb 7c3c
000003e0: e49b 963d 962b b53c 720b ed3c d41b e4ba
000003f0: f2cb d1bd ce86 8b3d a156 bb3d 139c 733d
-0.012310708 -0.0067506614 0.00893629 0.028166123 0.012774529 0.013024352 -0.015760964 0.013168951
-0.005925248 0.006359272 -0.03381709 -0.00089522445 0.001857268 0.0074255145 -0.031085415 -0.015181015
0.0040060226 0.009071368 0.003086005 -0.038930845 0.01703095 -0.018111585 -0.009116433 -0.025808359
-0.016956499 -0.009541899 0.0044728527 -0.007564586 -0.010810569 -0.008441053 -0.02157235 -0.0110462485
-0.009575992 -0.0040880814 -0.004653953 0.00937963 -0.0018246569 -0.012572028 -0.00980965 -0.0068549477
-0.004341692 0.01607857 -0.01851469 0.011321267 -0.011113939 0.032335103 0.03078637 0.008535789
0.0063278107 -0.01705931 0.010069059 -0.021017553 0.031543106 0.0077884938 0.009073101 -0.0187261
-0.024358314 0.003388833 0.028787425 0.009607014 -0.014182877 -0.0060790316 -0.009400293 -0.0016939316
-0.006554124 0.0339333 0.0013315816 0.011323512 -0.0055495044 -0.0025461947 -0.0027389466 -0.014381095
-0.003165614 -0.034597505 -0.0015792036 -0.0210999 -0.0024033533 -0.0041002636 -0.010127062 -0.0069987513
-0.011709811 0.024456922 -0.0127727315 -0.009071368 -0.0014686432 0.008504334 -0.01529211 0.002426922
-0.008521472 0.017333927 0.005243393 -0.014880568 -0.012853198 -0.011006961 0.025003383 -0.028293548
-0.019846292 -0.015983712 -0.006656513 -0.012163771 -0.014116331 0.003239406 -0.012703303 -0.005230048
0.004440918 -0.0059641553 -0.015795073 -0.022223607 -0.016976379 -0.009136494 0.002164256 -0.0107023865
0.0110193845 -0.012464773 -0.03193769 -0.011656358 -0.011781058 0.0062709246 -0.019929577 -0.014932407
-0.009748849 -0.01577044 0.01401744 -0.005522963 -0.00345607 0.018243108 -0.015326898 -0.01383341
0.04042141 0.061673075 0.009152397 -0.025041336 -0.044391938 -0.06894927 0.024884064 -0.051780578
0.08167262 -0.053045888 -0.01428519 0.027412191 0.04235737 -0.010476432 0.024929777 0.032327045
-0.105714634 0.036370676 -0.022238858 -0.006884894 -0.012479794 -0.052949388 -0.07320707 0.04461835
0.097337894 0.0024307591 0.011239587 0.07971337 0.08476298 0.02121473 0.04959189 0.057109382
0.049924813 0.067596935 -0.007738706 -0.043136083 0.02482596 0.048218142 -0.036187217 0.04738431
0.048853327 -0.0057600318 0.08941218 -0.013142208 0.0068867453 -0.024140397 -0.02235788 0.03154587
0.0008097251 0.07332415 -0.018256621 0.044973537 0.019004604 0.03504165 0.013028662 0.037625235
-0.0590722 -0.005596442 -0.08142373 0.064580396 0.02636561 -0.003647329 -0.007617375 -0.044036295
0.030735606 0.06791141 0.008389081 -0.010146011 -0.017330825 0.008545137 -0.03425607 0.030690257
0.050675333 0.09628883 -0.053667895 0.019367496 0.014235546 0.0576109 0.017790917 0.06990012
0.08890039 0.05563219 0.007967637 0.016636174 0.007892737 -0.09013451 0.065719835 0.06541825
-0.04158561 0.052386146 0.0062362673 0.042302813 0.052517083 0.081486955 0.069060005 -0.06451251
-0.037381694 0.009364376 0.05303829 0.040586352 0.008499286 -0.014382726 0.01691223 0.038052563
0.049919948 0.071515255 -0.021363668 -0.01579595 0.027273452 0.03258634 0.006877273 -0.004482686
0.048313476 0.042887975 0.1007691 0.08211548 -0.030098675 0.07151417 -0.017630976 0.015433116
0.073539525 0.02211551 0.028936122 -0.0017403313 -0.102439776 0.06812821 0.091473825 0.059475016

c_fc1|bias f4 [32]
00000000: 335b 4d3d 44b0 4d3e b3be 9b3d d8cf 27be
00000010: cdff 02be eeed 8d3d d0cd 1d3e 764b 803d
00000020: 8bb2 0abe 2704 903c 53ae 7a3d 118c 223d
00000030: 1e16 103b 1236 27bd 813c 86bd 5919 91bd
00000040: 1637 323d 8472 cdbb fda4 2dbe 2acc 393e
00000050: 506d efbc 86a9 9a3d 63c1 0abd 2156 05be
00000060: 4f73 e9bd 69c1 de3d aa71 4dbd cc24 1d3e
00000070: ea94 233d 86c2 583d 5938 783c 7c15 ac3d
0.050135802 0.20086771 0.07604732 -0.1638788 -0.12792893 0.06930147 0.15410542 0.06264393
-0.13544671 0.017580105 0.061201405 0.03968436 0.002198584 -0.04082305 -0.06554509 -0.07084913
0.043509565 -0.006269755 -0.1695747 0.18144289 -0.029226929 0.07551865 -0.033875834 -0.13021137
-0.113989465 0.10876734 -0.050157227 0.15346068 0.039936937 0.052919887 0.015150153 0.08402535

c_fc1|weight f4 [32, 32]
00000000: 8ac7 0dbe aad1 8bbd f412 0a3e bfa6 0d3e
00000010: c928 88bd 0bfc ad3d 1c8e 123a 49b1 d73d
00000020: 3036 a7bd 2082 4cbd 7b49 8abd 376d 98bd
00000030: 3b6a 28bd 4b25 a3bd 1b6d e1bd d125 edbd
00000040: a068 e339 9080 d03c fe19 ebbb 1347 6b3d
00000050: 838c 69bc 79a1 b33d 938c 96bd aa95 263d
00000060: 91b0 8ebd dcb6 f53d e535 1ebe 46d5 a7bd
00000070: fe86 693d e2dd be3d a523 d0bc 38c0 d8bd
00000080: 7854 bb3b b0e7 cdbd ad5b 92bd 7eba 113e
00000090: 3394 0ebe ca59 b43d b195 b63d 246b 96bd
000000a0: ef9d cbbd 7d7d f5bd 224c e93d 373b 2c3d
000000b0: 0fba d0bd 279e e0bd b144 c2bc ec73 08bd
000000c0: b070 fabd 799f cebd 7255 2abd 9f16 cc3c
000000d0: 67f2 fbbc dcc9 0b3e 5d12 573d 2e8e 74bd
000000e0: 69a6 c7bb 71c5 2cbe 3e86 04be d3c4 e73d
000000f0: 9572 b33d 04a0 d13d 18e4 cfbd 3695 393e
00000100: bd52 19be a233 8fbd cb31 103e d00a b6ba
00000110: 3e89 643c 3052 b1bd 4520 123e 9d17 b13d
00000120: eb57 613c 9ec1 213e c1b7 11be 12d2 97bd
00000130: 530a 45bd 4b6b 5d3d 4c2b 8c3c ce50 c33d
00000140: 0221 973d 9b5c 053e 01bc 38be a1f5 93bd
00000150: 09d9 e53d 0e76 163e 5d4e 04be ff14 853d
00000160: 0f5e 7abd 8caa f6bc ccd4 3f3d 0c53 a43d
00000170: 6f28 cd3d a4fc 52bd f60c 2d3e bb1f 053e
00000180: 22f6 4e3d 3f84 30bd b16e ebbd bf16 103e
00000190: 397f 91bd 27de af3c 8f2d 903b 0cf4 0e3e
000001a0: 5c2e 063e 5229 c3bd feb4 f2bd 39f0 d3bd
000001b0: 989a 7fbd a207 60bc 04e5 0a3e 5e56 bb3c
000001c0: b553 1bbe 6eb5 20bd 0c73 1ebe 82a0 cbbc
000001d0: c4b7 d9bd 14a4 a6bd 9b19 babd 2282 2d3e
000001e0: af5d 11be 3c54 2cbe c428 a7bd df31 b93d
000001f0: b467 2abb 38d8 263d 428a 953d 93c4 95bd
00000200: 1acc 8b3d fa37 053e 48c1 14bb 3ad3 06bd
00000210: f002 b83d ae09 013d f09b 86bd 4079 1e3e
00000220: fb8a fcbd 5074 01be a533 66bd 1dbc 1a3e
00000230: 33f4 683b 2518 093e 871b dfbc bb89 56bd
00000240: 3578 f5bd b527 8cbd f241 113e d69f 923d
00000250: 4c34 55bc 5c77 b13d 71f6 4abd ec91 eb3d
00000260: 3c39 ea3d d62c 023e 5c98 a9bc 41da 833d
00000270: 7287 0ebe e794 cf3d 4015 943d 0f37 923c
00000280: 164a c8bd 1b11 1f3e 9b84 67bd 1680 99bd
00000290: 088c ac3d 5ac5 4b3d 7def 103e 7222 113e
000002a0: c36e 2c3e d0b2 d33d 1326 7c3c edf3 a3bd
000002b0: 2949 f03d bbf3 eabb c995 ef3d 840e d2bd
000002c0: d946 c33d 9246 153d 55de 1fbd 2213 a73d
000002d0: e925 18bd 6a94 9abd c7be d5bc 3c37 14be
000002e0: e494 89bb d3a4 c6bc 9415 eabd c9e2 09be
000002f0: aaa5 97bd 751b 2c3e 982f a3bc 47e2 893c
00000300: 01d0 793c ecd1 153e b654 423c 761b 57bd
00000310: 74a4 893d 6356 a6bd a65f 073d ff2c eebd
00000320: 688e b03d bd25 dc3d 6195 03bd f8db be3d
00000330: 5aaf db3d ed77 1b3e 7979 c9bd 9a2e 113d
00000340: 0886 89bd 51d8 973d 52f5 8d3d 1b4f 293e
00000350: 7ddd 1d3e 09c1 783d 4d62 32bd f48a fb3d
00000360: 9a2f ac3c f348 ddbd bd08 5b3d 8c1f b23d
00000370: a85d 88bd ab32 19be b7b8 123d 752f 1bbe
00000380: d6c1 fe3d 7e67 1fbe b5ab 8a3d d4f1 8dbd
00000390: 576a 2a3d a192 ea3d 20a2 1e3d fcfc 233d
000003a0: 4d20 bb3c 7254 25bd 440e e1bd 2f88 bfbd
000003b0: 3d62 17be af9c 813d 9b70 eabd f3c4 69bd
000003c0: 199a 4f3d 04c8 89bd fded 2dbc 8a86 ae3d
000003d0: 4a53 13bc 323f 173e e6d3 cebd bff1 d63d
000003e0: ee89 c4bd 1ae1 053e afe5 1bbd b7b3 cc3c
000003f0: 706d 16bd 2b85 bbbd 2adb 083d a6be 883d
-0.1384565 -0.068270996 0.13483793 0.1383314 -0.06648404 0.08495339 0.0005590634 0.10531861
-0.08164632 -0.049928784 -0.067522965 -0.07442706 -0.041116934 -0.079660974 -0.11007138 -0.115794785
0.00043374766 0.025451928 -0.0071747294 0.05744083 -0.014254692 0.08771033 -0.07351031 0.040670075
-0.06967271 0.11997768 -0.15450247 -0.081949756 0.057013504 0.093196645 -0.025407622 -0.10583538
0.0057168566 -0.100539565 -0.07146392 0.14231297 -0.13923721 0.088061884 0.0891527 -0.07344654
-0.09942233 -0.119868256 0.11391474 0.04204866 -0.10191738 -0.10967665 -0.023714395 -0.033313677
-0.12228525 -0.10089011 -0.041585393 0.02491313 -0.030755235 0.13651222 0.052507747 -0.059705906
-0.0060928357 -0.16872193 -0.12941834 0.11316838 0.08762089 0.10235599 -0.10150927 0.18123326
-0.14972968 -0.0699227 0.14081495 -0.001388872 0.013948737 -0.08658254 0.14270122 0.08647082
0.013753871 0.15796515 -0.14230253 -0.074131146 -0.04810555 0.0540574 0.01711049 0.09536897
0.073793426 0.13023607 -0.18040468 -0.07224584 0.11223037 0.14693472 -0.12920518 0.06498145
-0.061124858 -0.03011062 0.0468338 0.080236524 0.10017478 -0.051510468 0.16899475 0.13000385
0.0505277 -0.04309487 -0.11495722 0.14071177 -0.07104344 0.021468235 0.0043999623 0.13960284
0.13103622 -0.095293656 -0.11850928 -0.10348553 -0.06240329 -0.013673695 0.13563925 0.022868332
-0.1516865 -0.039235525 -0.15473574 -0.02485681 -0.10630754 -0.08136764 -0.09086915 0.16944173
-0.14195894 -0.16829008 -0.08162072 0.09042715 -0.0026001753 0.040733546 0.07301761 -0.07312884
0.06826039 0.13009635 -0.0022698212 -0.032916285 0.08984935 0.031503372 -0.065727115 0.1547594
-0.12331196 -0.12642026 -0.056201596 0.15110822 0.0035545945 0.13388117 -0.027234806 -0.052377444
-0.11985818 -0.06843511 0.14185312 0.071593925 -0.013012957 0.08665344 -0.04955143 0.11502442
0.11436698 0.12712416 -0.020702533 0.06438113 -0.13918856 0.10135823 0.072306156 0.01784852
-0.09779756 0.15533869 -0.056522947 -0.074951336 0.08425146 0.049748756 0.14153858 0.14173296
0.16839127 0.1033684 0.015389937 -0.080055095 0.11732704 -0.007170168 0.11698491 -0.10256675
0.095349975 0.036444254 -0.03903039 0.08157946 -0.03714553 -0.07547839 -0.026091946 -0.14474195
-0.0041986573 -0.024248516 -0.11429897 -0.13465418 -0.07404645 0.16807349 -0.019920155 0.01683153
0.015247346 0.1463086 0.011861017 -0.052516423 0.0672082 -0.08121946 0.0330502 -0.11629676
0.08620912 0.107493855 -0.03212488 0.093192995 0.10726805 0.15182467 -0.09837622 0.035444833
-0.067150176 0.07414306 0.06931557 0.16534083 0.15416522 0.060730968 -0.04355078 0.122823626
0.021018792 -0.108049296 0.05347513 0.08697423 -0.066584885 -0.14960735 0.03582069 -0.15154822
0.12439315 -0.15566823 0.06771032 -0.06930891 0.04160532 0.114537485 0.038728833 0.040036187
0.02284255 -0.040363736 -0.10989049 -0.09352147 -0.14783569 0.06328713 -0.11447259 -0.05707259
0.05068407 -0.06727603 -0.010615823 0.08521755 -0.008992026 0.14770201 -0.1009901 0.10495328
-0.095966205 0.1307415 -0.03806084 0.024988038 -0.03672546 -0.09156259 0.033412136 0.06676988

c_fc0|bias f4 [32]
00000000: 6dd0 6a3c 88ba 9c3c 2210 5d3d 0bbc a43e
00000010: de78 54bc 4fdc c5bd fee5 27bd cf4e 62be
00000020: 93a3 bdbe 5ce6 d23e 0a6e 0abe 411f 673e
00000030: cee3 78be 873e 4f3e 0999 c13c 98e4 5c3d
00000040: eda0 823e cb1e 1e3e 6a9a b5be 8967 1abe
00000050: d676 65be 8519 b03e bf01 3dbe 0e8f ccbd
00000060: 8c4e 333e 4bd3 92be f956 ddbd b54d 9b3e
00000070: 4dff e4bd b514 8f3d 486b a63e 3d49 763d
0.014331919 0.019131914 0.053970464 0.32174715 -0.01296827 -0.09661161 -0.040990822 -0.22100376
-0.3703886 0.41191375 -0.13518539 0.22570516 -0.2430565 0.20238696 0.023632543 0.05392894
0.25513402 0.15441434 -0.3546937 -0.15078558 -0.22408614 0.3439447 -0.18457697 -0.09988223
0.17510432 -0.2867683 -0.10807604 0.30332723 -0.11181507 0.069863714 0.32503724 0.06012844

c_fc4|bias f4 [128]
00000000: 6119 66bd c3d8 853c 2d02 643d 3aac 94bd
00000010: a672 97bd 1b46 923d 19d9 9ebb 3574 0c3c
00000020: c5bf 0a3d 74c3 94bc f647 93bd cfa8 ba3d
00000030: 3481 35bd f668 5bbd 0726 2d3d dc55 133d
00000040: 23dd 3dbd 683a 0f3b 73d8 6f3c 51f5 0bbd
00000050: bde2 b63d f433 04bd 3b4e a1bc 4b50 a93d
00000060: d539 e1bb dfa9 b83d 2561 893d 8d9a d4bc
00000070: dc88 a7bb 2009 f8bc 1acd 27bc 58b8 a8bd
00000080: 6485 983c 83cd 943a 6275 aa3b ef85 483d
00000090: e6b8 4f3d 2fce efbc 1650 90bd 1a4b a0bd
000000a0: 043f 833d c4bd a73b 186a a73c 1503 49bd
000000b0: 2cac a93c 82c3 91bc 30e8 4a3d e52f 233d
000000c0: 42e3 883d 5ff3 90bd 2a43 ac3d 6d64 123b
000000d0: 2393 3e3d 5ace 3fbd 9981 6cbd 4fe2 e8bc
000000e0: 7a12 9fbb e9e2 3abd 7718 c8bc 1ae6 23bc
000000f0: 2cc9 733d b70b 08bd ac34 f7bc 4219 6ebc
00000100: b800 8cbc b4cc 3f3d b30b eb3c e6ac 7cbd
00000110: 134e 08bd 1eaf 7ebc 9b14 6d3d 34af a13d
00000120: 5072 6fbd 3432 35bd 2c90 2c3d 2ac7 a4bc
00000130: add1 053d 54d5 6c3d ec0a c6bc f07d 88bd
00000140: 074f 783d 87a7 a73d 4c25 4e3d 7654 e23b
00000150: f87d 9c3d cd13 293d 03f0 28bb 3d4a ec3b
00000160: a2b2 913d ecaf 18bc 3fc1 d0bb 06bc 62bc
00000170: 39fb 5d3d f162 5abc f666 8a3d 8ada 803c
00000180: 04ec 2f3d 7052 083d 6cd0 523c 6b80 95bd
00000190: b700 5b3d c3bd 2d3b bc98 49ba 0aee 0a3d
000001a0: f3c9 bf3d 5d4e 8b3d 153d e3bc b12f aebd
000001b0: 7f67 d6bc a439 2f3d 6e2f 81bd 7565 a83c
000001c0: 4f7b 92bb 86d5 19bd 2fc8 a2bd 5d2c a7bd
000001d0: a084 e6bc a757 b43d 085d b3bc b34c 29bd
000001e0: 4e13 863d 6ae3 46bd ed74 a43c fd2a b93d
000001f0: 5450 5c3d 4dc9 69bd 0ebe 503d 22dc 9f3c
-0.056176547 0.016338712 0.055666137 -0.07259412 -0.07394914 0.07142278 -0.0048476574 0.008572628
0.033874292 -0.018159606 -0.0719146 0.09114229 -0.04431267 -0.053566895 0.042272594 0.035970554
-0.04635347 0.0021854881 0.014639008 -0.0341695 0.08929966 -0.03227611 -0.019690624 0.08267268
-0.006873349 0.09016775 0.06707982 -0.025952602 -0.0051127505 -0.030277789 -0.010241771 -0.08238286
0.018618293 0.0011352751 0.0052019814 0.048955854 0.050713442 -0.02927312 -0.07046525 -0.078268245
0.06408504 0.0051190574 0.020436332 -0.049075205 0.02071198 -0.01779342 0.049537838 0.039840598
0.06683971 -0.07077669 0.08411248 0.002233769 0.04652704 -0.04682765 -0.05774078 -0.028428225
-0.0048544975 -0.045626555 -0.024425728 -0.010003591 0.059518024 -0.033214297 -0.030176483 -0.014532389
-0.017090186 0.04682608 0.028692102 -0.061688326 -0.033277582 -0.015544681 0.05788098 0.078947455
-0.058458626 -0.04423733 0.04212968 -0.0201145 0.032670666 0.057820633 -0.02417513 -0.06664646
0.06062224 0.0818625 0.050328538 0.006907041 0.07641214 0.04127865 -0.0025777824 0.0072109983
0.0711415 -0.009319287 -0.006370693 -0.013838774 0.054194663 -0.0133292535 0.067579195 0.015729208
0.04294969 0.033281744 0.012867074 -0.072998844 0.05346748 0.0026510812 -0.00076903007 0.033918418
0.09364691 0.06802056 -0.027739087 -0.0850519 -0.026172398 0.04277958 -0.063078746 0.020556191
-0.004470266 -0.037557147 -0.07948338 -0.081627585 -0.028139412 0.08805781 -0.021894947 -0.04133291
0.06546651 -0.048556723 0.020075286 0.090414025 0.053787544 -0.05707674 0.0509625 0.019514147

c_fc5|weight f4 [128, 128]
00000000: 9cee 153d c35d 72bd 0df7 44bd 5f04 983c
00000010: a050 13be 0063 473c e526 8a3d 01ef acbc
00000020: a9b6 afbd 741e 4d3d fff0 303a 6c49 003d
00000030: a203 f2bd ed15 6a3c f976 07be f9e5 5b3d
00000040: ab09 173d c166 51bd 6720 fcbc da1b cfbd
00000050: a35c aebc 67e5 eabb 037c 793c 1788 a23d
00000060: 1ce1 833d 4575 58bc 2ed7 69bb 2f4a d7ba
00000070: c05c 8f3c a412 6bbb 795f 95bd f776 9bbc
00000080: af0f 2c3d 6626 2c3d f866 a03d 8c70 06bd
00000090: 3116 713b c709 8f3b e573 47bd 9c12 b4bd
000000a0: 3759 0f3e a23d 18bb 087a 58bd 91b2 8fbc
000000b0: bba1 b1bd 0e3d 10be b5e4 cdbc a06f be3d
000000c0: 2cc3 e1bd a80c 54bc 4491 cfbc 9874 f5bc
000000d0: 2cb2 843d dfc2 91bd a380 733b 49b1 113e
000000e0: aaa2 9dbd b1b4 083e f46d 4fbd 37e3 d0bc
000000f0: 8e76 d63d deb5 543d e164 54bd e869 fabd
00000100: 8024 823d c163 ee3d 4c0d a1bd 6118 fe3c
00000110: 1d44 b63d 7fdf eebd b9da 1f3d 5616 febc
00000120: 4e03 553d e200 c23c e94e aabc 1eb6 30bd
00000130: 3fda 733d 90c5 d03b e0af d03d 9c5b 02be
00000140: bf5b c63d 49b2 6dbc 8b45 6bbd 48d4 cb39
00000150: 1313 dbbc e051 ef3d 05fd 85bd c5d1 e63c
00000160: 1986 cdbd 134c 5e3c 1325 8cbd 08e2 d0bd
00000170: 658b 5dbd fe73 d33c 9767 753d 61b3 33bd
00000180: 0644 a1bc 6d60 6b3d ae64 9dbd 96aa e2bc
00000190: d13e 0d3d b149 8db9 5dd6 94bd a0af 06be
000001a0: e67e 8f3c 4f63 22bd ee9c b4b8 9d92 ffbc
000001b0: 4430 d9bc d354 4dbd 32c8 003d 29ce ed3c
000001c0: 1208 ecbd dcbd 5d3d 1332 733c 2ba8 12bc
000001d0: c093 683d b3d2 31bd cb97 35bc 143d b8bc
000001e0: 185a d23d 3d3a 90bd 210b 3bbd 9ac9 f23b
000001f0: 84e1 95bc c873 c8bd 8f63 04bd f602 e03d
00000200: b33c e23c 75fd 423d 0439 bb3c 3092 36bd
00000210: 8e91 153e 406b d9bd b760 0ebe a611 913d
00000220: 2319 293d 8a68 4bbd 982f 0fbb e1c2 bdbd
00000230: a65a 413d f2ae e03d 479e 7fbc db41 11be
00000240: 4e63 813b b0a5 8d3c 953e 803d 2517 b73c
00000250: fb50 d33d bc8b 113e 1cd8 853d 06e1 c23d
00000260: a641 08be 47f1 e6bd d388 d5bd 57de b8bc
00000270: b833 ffbc 580f 9ebd 7832 7bbd 397b 2d3b
00000280: 88d5 5f3d c60e 833c 7d9d 4abd cf24 b8bd
00000290: c377 68bc 2cb3 e0ba 37eb c73a 183b 85ba
000002a0: 79b4 343b 1b4c 853c 0c0c b03d f2b0 193d
000002b0: d22f 023e 8bfb be3d d9f4 2a3d 4e4d a8bc
000002c0: c017 b2bc 5414 a13d 1c23 4abd 7ac4 ec3d
000002d0: 4ae8 333c d3e0 533d 3c79 223c f04f 02be
000002e0: 507b 2cbb 5d62 bfbc 4388 6bbd 3a51 30bc
000002f0: 6b1c 483d 6eca f33c 1e4a e33c 90ed c0bc
00000300: e270 25bd f10d b23c a353 1ebd 1d1f 9c3c
00000310: 7575 b73a e5f1 ddbb 1767 06bd 6733 903d
00000320: 9762 a0bc 4a04 093d 0d76 ca3d 351f 88bd
00000330: 90c7 c9bc 06ef af3d bc3c 2a3d cc2c 6eb9
00000340: 2d58 7d3d 3bf6 443c 35e5 993c ff3e 43bd
00000350: b54a 96bd 9a4c 1a3c 2713 a43b cde6 e73d
00000360: 0dec cfbc bfe4 b2bc 80d2 6f3b a6a2 44bc
00000370: 6bf6 403c 1115 c83d 7c9f 44bd 25d3 8c3b
00000380: a5ca 223d f441 17bd 8f2a 2ebc 7a97 fc3d
00000390: b1f7 71bd 9a6a 1bbc 7bcf 283d 7a42 d43c
000003a0: b756 25bd 7083 61bd b1c3 15bc f613 16bb
000003b0: 2fd3 823b 575a 49bb 83ee 9fbd f814 a93d
000003c0: 4c06 4b3d 5c89 913d 017a 7e3d 6f5d 493b
000003d0: 9c6d fabc a56a 9d3c 8d43 d43c 02f5 8d3c
000003e0: af8f 6dbd 2c63 1ebc c61c 913c e550 173d
000003f0: 6c60 68bc 2c17 c63d d1b1 0abd f9d1 d0bd
0.03660451 -0.05917145 -0.04808717 0.018556772 -0.14386225 0.0121695995 0.067457 -0.02111006
-0.085797615 0.05007787 0.00067497784 0.03132002 -0.11817099 0.014287454 -0.13228978 0.053686116
0.036874454 -0.051123384 -0.03077717 -0.10112734 -0.021284407 -0.00716846 0.015227321 0.07936113
0.064394206 -0.013211553 -0.0035681236 -0.0016425307 0.017500281 -0.0035869265 -0.072936006 -0.018977625
0.042007145 0.042028807 0.0783214 -0.032822177 0.0036786909 0.004365179 -0.04869451 -0.08792612
0.13998877 -0.0023230095 -0.052850753 -0.017541202 -0.08673426 -0.1408579 -0.02513347 0.092986345
-0.11023554 -0.012942471 -0.025337823 -0.029962823 0.06479296 -0.07117247 0.003715553 0.14227785
-0.07697041 0.13350178 -0.05064197 -0.02549897 0.10471831 0.051931255 -0.051854018 -0.12227231
0.06354618 0.1164012 -0.07863864 0.031017484 0.0889971 -0.11663722 0.03902695 -0.03101651
0.052005105 0.023682062 -0.02078958 -0.04314243 0.059534308 0.0063712075 0.101897955 -0.12730259
0.09685468 -0.0145078385 -0.05743937 0.0003887734 -0.026742494 0.11685538 -0.065424 0.028176198
-0.10035343 0.013567942 -0.06843009 -0.10199362 -0.054088015 0.025812145 0.059913244 -0.04387224
-0.019685756 0.057465006 -0.07685219 -0.027669232 0.034483735 -0.0002694852 -0.07267449 -0.13152933
0.017516565 -0.03964549 -8.612299e-05 -0.03119784 -0.026512273 -0.050129723 0.03144092 0.029028969
-0.11524977 0.054136142 0.014843482 -0.008951227 0.05678153 -0.04341383 -0.011083554 -0.022490062
0.1027109 -0.07042358 -0.04566491 0.0074092867 -0.01829601 -0.097877085 -0.03232151 0.10938065
0.027616834 0.047604997 0.022854336 -0.04457301 0.14606306 -0.106161594 -0.13904081 0.07083444
0.041283738 -0.049660243 -0.0021848436 -0.09265686 0.04720559 0.10970868 -0.015601701 -0.14185278
0.0039486056 0.01729092 0.062619366 0.022349903 0.1031818 0.1421346 0.0653536 0.09515576
-0.13306293 -0.11276489 -0.10426488 -0.022566957 -0.031152591 -0.0771777 -0.061327428 0.0026471152
0.054647 0.015998255 -0.0494666 -0.08991396 -0.01418871 -0.0017143241 0.0015252595 -0.0010164706
0.002757339 0.016271641 0.08596048 0.037522264 0.12713555 0.09325322 0.04173741 -0.020544674
-0.02173984 0.078652054 -0.04934989 0.115609124 0.010980675 0.05172808 0.0099166 -0.12725806
-0.0026318617 -0.023362333 -0.057502996 -0.010761553 0.048855226 0.029759612 0.027745303 -0.023550779
-0.040390857 0.021735163 -0.03865398 0.019057805 0.0013996797 -0.006773221 -0.032813158 0.07041054
-0.019578261 0.033451356 0.09885798 -0.06646577 -0.024631292 0.08590512 0.041561827 -0.00022714137
0.06185167 0.012021597 0.018786052 -0.0476675 -0.07338468 0.009417677 0.005007166 0.11323319
-0.025381112 -0.02183759 0.0036593974 -0.012001669 0.011777501 0.09769643 -0.04800366 0.0042976313
0.039744038 -0.036928132 -0.010630264 0.12333579 -0.059074108 -0.009485865 0.041213494 0.025910605
-0.0403659 -0.05505699 -0.009140895 -0.0022900081 0.00399246 -0.0030724013 -0.078091644 0.082559526
0.049566552 0.07106277 0.06212807 0.0030725857 -0.030569844 0.019215891 0.025911117 0.017328743
-0.057998355 -0.009667199 0.017713916 0.03694238 -0.014183145 0.096723884 -0.033860985 -0.10196299

c_fc2|weight f4 [6, 32]
00000000: 884c 2ebd bbb6 a33c d696 f6bb a72a f4bc
00000010: e9f8 cdbc 3029 613c 0751 22be c401 0c3e
00000020: 8495 123e f002 283e f52c 5bbc 9b5c ad3c
00000030: e7c2 13be 22c0 a6bd bad3 20be 53d0 90bd
00000040: 67b9 0bbe c5c1 b4bd 19c8 bb3c 7c84 2a3e
00000050: 376b e2bd 2fb2 393d 07cf 2dbe c494 0bbe
00000060: 7810 19be 8515 153e eac4 08bd 98d5 c43c
00000070: bd8b c43d 3c4b 2e3e 1bd6 b1bd 98f8 c9bd
00000080: 72be dd3d 6489 c83d 379a 6d3d 03a0 eb3b
00000090: 71b8 06be 5461 74bd a4b5 4abc f1af 14be
000000a0: 42b9 2e3b 9b37 0fbe f888 813b 3cd2 19be
000000b0: b64a f1bd 7b89 c53c 15f1 223e 7cbd 1d3e
000000c0: 4dfa 6d3d f125 243e fdef 02bd acd0 fb3d
000000d0: c70e a73d 0d12 bf3c 855f 403d 780e 24be
000000e0: 7117 81bb 4d7e 063e 0ab7 fb3d 2952 8e3b
000000f0: 1240 00be ac7c 09bd 655d 0ebe ac73 0fbe
00000100: 33a2 f43c 68d9 73bd 0622 dcbd b941 dd3d
00000110: d400 c33d b2b8 e33d d9be 883d 31dd df3d
00000120: 88b2 debc 247c 473e c573 3ebc 131e d93c
00000130: 3510 aa3d be7f af3c 82da f63d fbbc 3e3e
00000140: 6535 9d3d 1d6f 0fbc 20ab e0bc 84cf 21be
00000150: b2df 20bd 9056 b03d f9ff 303c 0071 073e
00000160: f1e9 373d 05e8 a83c d222 f23d 0f53 0f3d
00000170: 6d28 433d f241 edbd 5247 25be 9973 f1bc
00000180: 9c2e a43d ea42 013e e13a 093e f71c 0b3e
00000190: 176c c5bd 0322 62bd 9e76 b13d 2416 c13c
000001a0: c742 1ebd ed68 28be 91d2 8e3d 88aa 523b
000001b0: aa88 673c f0f0 48bd 1103 c1bd ce99 053d
000001c0: a9f1 9a3d e05a e93d 3b01 1cbe d5ab 3e3e
000001d0: f31e 08bd 5efa 0b3e 6390 083e f6f3 f6bd
000001e0: 7f10 50bd 51e7 883d 8425 e5bd 5f9f a9bd
000001f0: 1699 dbbd 716b debd ffa0 acbd d337 09be
00000200: 42f3 92bc 2dc1 f03d 0c3a d5bd 0245 1d3e
00000210: 0bc8 02be e92e d9bd 40ac 2e3e 6c1f dc3d
00000220: e2e8 14bd 1306 e2bd 312c 003e 494f 04be
00000230: a28a 06bc 02c9 a13d 5ccb 0f3c f540 ed3d
00000240: 72ef 7e3d 6e94 d3bc 56b1 d53d 0be5 5ebd
00000250: 994f 35be e60d e7bc cf60 e0bd 30bc 3abd
00000260: 090d 3ebd ef73 ee3d b8d8 17bd 498a eabd
00000270: 441c 083d 352f 3fbd 23a9 e53d 54bd 41bc
00000280: 2e5f 17be 4745 25be 2997 8fbd d8cd 173d
00000290: 846d 65bd 0c44 22be b3e1 063e 4d69 fabd
000002a0: 1734 163d e8e2 983d 95b3 a43c 3838 013e
000002b0: 1411 b0bd a469 a73d 8784 913d 41e8 efbd
000002c0: cf4b 61bd 945f ba3c 83f2 303e 10a2 ac3b
000002d0: 9af1 b93d f6b8 42bd 8dea d23c 1547 a13c
000002e0: 7d29 25bb c644 8a3d 7709 1dbe d665 36be
000002f0: 9cc1 433d a75a 5d3d 63a7 99bc 5a2f 75bd
-0.042553455 0.019984594 -0.0075253053 -0.029805494 -0.025143104 0.01374273 -0.15851222 0.13672549
0.14314848 0.1640737 -0.013377418 0.021162322 -0.14429818 -0.08142115 -0.15705767 -0.07070985
-0.13644944 -0.08826021 0.022922562 0.16652101 -0.11055606 0.045335945 -0.16973506 -0.13630968
-0.14947689 0.1455899 -0.033390917 0.02402763 0.095969655 0.17020887 -0.086834155 -0.098618686
0.1082734 0.0979183 0.0580084 0.0071907057 -0.13156296 -0.05966313 -0.012372408 -0.14520241
0.0026660715 -0.13986056 0.0039530955 -0.15021604 -0.11781828 0.024113407 0.15912278 0.15404314
0.058100034 0.16030098 -0.031967152 0.122956604 0.081571154 0.023324037 0.046966095 -0.16021144
-0.003939562 0.13134117 0.12290771 0.0043432903 -0.12524441 -0.033566162 -0.13902815 -0.14008969
0.029862499 -0.059533507 -0.10748677 0.10803551 0.09521642 0.11119212 0.06677026 0.10930861
-0.02718474 0.1948095 -0.011624281 0.026503598 0.083038725 0.021423217 0.12053396 0.18626778
0.076762 -0.008754519 -0.027425349 -0.15801817 -0.039275832 0.086102605 0.010803216 0.132267
0.04490084 0.020618448 0.11823048 0.03499132 0.047645975 -0.11584844 -0.16140488 -0.029474067
0.080167025 0.12623182 0.13401367 0.13585268 -0.09639757 -0.055208217 0.086652026 0.023570128
-0.038637903 -0.16446276 0.06973756 0.0032145102 0.014131704 -0.0490579 -0.09424413 0.032617383
0.07565624 0.11394286 -0.15234844 0.18620236 -0.03323264 0.13669726 0.13336329 -0.120582506
-0.050796982 0.06684745 -0.11188796 -0.08282351 -0.10722558 -0.108603366 -0.08429145 -0.13400201
-0.01793826 0.11755595 -0.10411462 0.15358356 -0.12771623 -0.106046505 0.17057896 0.10748181
-0.036354907 -0.11036315 0.12516858 -0.1292087 -0.008211764 0.07899667 0.008776512 0.11584655
0.06224007 -0.025827613 0.10434215 -0.05441765 -0.17706145 -0.02820487 -0.10955965 -0.045589626
-0.04639915 0.11643206 -0.037071913 -0.11452157 0.03323008 -0.04667588 0.11213901 -0.0118249245
-0.14782402 -0.16139708 -0.070112534 0.037061542 -0.056012645 -0.1584627 0.13172035 -0.12227116
0.03667077 0.07465154 0.020105163 0.12619102 -0.085970074 0.08174446 0.07105356 -0.11714221
-0.055003937 0.022750653 0.17280011 0.005268343 0.09079285 -0.047539674 0.025746608 0.019687215
-0.002520173 0.06751399 -0.15335642 -0.17812285 0.047792062 0.05404153 -0.018756574 -0.05985961

c_fc3|bias f4 [128]
00000000: 6198 d8bc ec31 653e c2a9 453e 7758 5e3e
00000010: f4ce 4dbd d90e 0f3e b571 db3d bc74 023e
00000020: 14de 883c 262d 4ebd c5ca 2e3c a967 36be
00000030: 7b9b 7cbc 1745 1b3e ca32 473e 7143 3a3e
00000040: 3775 c4bd 1db4 a53c 0d74 18be 76b4 673e
00000050: 6cd0 b1bc 5a70 163d bde4 f63d 735e d4bd
00000060: 17b2 e9bd bf03 243e eae0 133e e919 49be
00000070: 7e45 46bd 4b4d 073e fefd 8a3d bcbf ccbd
00000080: cdc0 fc3d a4e1 56be 7768 c3bc 084d adbd
00000090: c98b b5bd 6e69 bf3d 1264 d13d b018 f8bd
000000a0: 4896 d13d 68a5 0e3e e842 123d 0425 553d
000000b0: 4e67 413d 5ef6 19bd c579 63bd 474f f9bc
000000c0: 9b14 0fbd 63eb 573e 4f58 03be e598 2ebe
000000d0: 6638 32be 02ec ab3d 0fb0 d33d 6f12 2fbe
000000e0: fc4c babd 2674 c23b cc71 203e 0341 c23d
000000f0: 619c 0cbd 7811 133d 85e3 483e d1f6 e43d
00000100: a82b 1a3e 58bb 573e c9a9 253e d01c 613e
00000110: b6dd da3d 86fd 0abe 69b9 ad3d d51f 463e
00000120: 2b8a 43be acdb 3bbe 2f2f f7bd d887 cb3d
00000130: ff24 043e 748c 2d3e 761b fb3c 12a8 103d
00000140: 825e 83bc 0c33 57bd fff0 3cbe ce83 343e
00000150: 3f97 203e 48d9 82bd 7be8 ed3c e3cd 433e
00000160: 284b 14be 11dd 653d 8e2b 4b3d b66e 3cbe
00000170: 6296 f83d b161 4abe d41a 473d 592c 553e
00000180: 6e23 0d3e c52d c83c 506a 46be 99d6 eebd
00000190: 9c37 e7bd c111 ba3d 21a1 423e 2859 5c3e
000001a0: abf8 f53d 4059 5dbe a3ad fe3d 4759 4b3e
000001b0: 4952 d53d 0d86 40be 74ac 4d3d 26e8 0ebe
000001c0: 2883 c13d 038a efbd 4621 9e3d 6426 b1bd
000001d0: 1060 533e 7f5a a0bc 4940 cd3d 5e32 4fbd
000001e0: 8195 913d f264 a3bb 7cf5 14be ee3e 1dbd
000001f0: 89c1 20be cbb0 3bbe 4625 48be 2aad 8cbd
-0.026439847 0.22382325 0.19303039 0.21713434 -0.050246194 0.13970508 0.10715047 0.12739843
0.016707458 -0.050336026 0.010668461 -0.1781298 -0.015417929 0.15163074 0.19452968 0.1818979
-0.095926695 0.020227486 -0.1488802 0.22627434 -0.021705829 0.03672824 0.12055347 -0.10369577
-0.11410921 0.16017054 0.14441267 -0.1963879 -0.048406117 0.13213079 0.067867264 -0.09997508
0.12341461 -0.20984513 -0.023853524 -0.08461958 -0.088645525 0.09346281 0.10224165 -0.12114084
0.10233742 0.13930285 0.035708338 0.052037254 0.04721766 -0.03758847 -0.05553605 -0.03043331
-0.03493176 0.21085887 -0.12826656 -0.17050512 -0.17404327 0.08394624 0.10336315 -0.17096876
-0.09096715 0.005934256 0.1566841 0.09485056 -0.034328822 0.03590533 0.19618042 0.11179889
0.15055716 0.2106756 0.16178049 0.21983647 0.10686819 -0.13573274 0.0848263 0.1934808
-0.19095676 -0.18345517 -0.120695464 0.099380195 0.12904738 0.1694811 0.030652743 0.035316534
-0.016036276 -0.052538916 -0.18451308 0.17628404 0.15682696 -0.06389099 0.02904152 0.19121508
-0.14481795 0.05611903 0.049602084 -0.18401608 0.12138058 -0.19763829 0.04860957 0.20817699
0.13783047 0.024435887 -0.19376493 -0.11662025 -0.112899035 0.090854175 0.19006778 0.21518385
0.1201032 -0.21616077 0.12435462 0.19858275 0.10416085 -0.18801136 0.050213292 -0.13955745
0.09448844 -0.116962455 0.0772119 -0.086499006 0.20642114 -0.019574402 0.10022027 -0.050585143
0.07108594 -0.004986399 -0.1454677 -0.038390093 -0.15698828 -0.1832916 -0.19545469 -0.06868966

c_fc_v|weight f4 [1, 128]
00000000: 5a90 14be 8c24 3b3d c0ca 9fbd 2600 fe3d
00000010: fd9d 13be d872 9fbd 0cb6 1e3e 66a4 cdbd
00000020: b41e 303d 4f7d fdbd cc76 003e 951b a0bd
00000030: fd10 d9bd 3b11 cebd 05ad d4bd 559d e63d
00000040: 699d 34bd fda7 a5bd fa7e 123e 46f0 fd3d
00000050: d38c af3d 53fc d43d abb9 e63d aa54 00be
00000060: 6ecc a7bd a1e9 663d 6b22 17be 4f3d 89bd
00000070: 39aa b33d 89cd 1ebe fffa 253d a650 783d
00000080: 87f6 0ebe 7dca bbbd f9a8 dd3d 5f77 b4bd
00000090: 81aa eabd 9642 16be b1fd 513d 9311 dcbd
000000a0: 0955 b43d aa3a 19be d662 dfbd 410f 4f3d
000000b0: dfc1 843d 78eb a4bd 3a06 b6bd fb13 ddbd
000000c0: 0f59 a3bd 5edf 0d3e 9ca5 bebd a6a6 a9bd
000000d0: 1fca 49bd 9957 86bd 34ad 08be d73d 1f3e
000000e0: 37f0 083e 9c4a 5dbd 349b 9fbd 74db db3d
000000f0: 0c80 a13d a150 da3d ab59 1ebe cb28 9fbd
00000100: 3359 87bd 6288 93bd 9c94 02be 3db8 093e
00000110: 3542 a63d addf 19be 5e46 edbd 35c5 9a3d
00000120: 024f f2bd 1a34 373d e7c6 debd 10f6 243e
00000130: 63a8 1dbe 7983 1a3e 9e9c 193e 798b bebd
00000140: ed90 173d 1f3b 8abd 1cac cb3d 436f e1bd
00000150: b3b4 043e f77a e53d 2c1f cb3d f817 0b3e
00000160: 8b2d c7bd 0e9d 393d 8b4a 0fbe 4be9 c53d
00000170: 7041 fd3d 6b81 df3d 4d92 0cbe ae43 bf3d
00000180: b639 8f3d 649a d43d c942 cebd ff75 ee3d
00000190: 3a6d 2c3e 6323 b33d 3d5b 043e bed8 5e3d
000001a0: 3ef8 f2bd 3be5 ab3d 489a 183e bd09 bc3d
000001b0: 612d 813d 7f3d 983d 0621 bdbd 6e4c 993d
000001c0: a6a2 f93d 57aa ae3d 94e7 d13d ccd0 803d
000001d0: 7c87 503d a809 ad3d 2a92 82bd 0978 203e
000001e0: 256d febd c28f dc3d d37b db3d 97ea 013e
000001f0: cb3d f63d 96d5 ce3d 71cd ad3d 7282 bb3d
-0.14508191 0.04568915 -0.07802343 0.12402372 -0.14415736 -0.077855766 0.15499133 -0.10041122
0.04299803 -0.12377416 0.12545317 -0.07817761 -0.105989434 -0.1006188 -0.10384563 0.112604775
-0.04409543 -0.08088682 0.1430625 0.12399344 0.08571782 0.103996895 0.11265882 -0.12532297
-0.08193289 0.05637515 -0.14759223 -0.06701147 0.08772702 -0.15508093 0.04052257 0.060623787
-0.1396123 -0.09169481 0.108232446 -0.08811831 -0.11458302 -0.14673838 0.05126733 -0.107455395
0.08805282 -0.14963785 -0.10907523 0.050551657 0.064822905 -0.080527246 -0.088879064 -0.107948266
-0.07975971 0.13854739 -0.09308931 -0.08283739 -0.049265023 -0.06559677 -0.13347322 0.15550934
0.13372885 -0.05402623 -0.077932745 0.10735217 0.07885751 0.1065991 -0.15463893 -0.077714525
-0.0660881 -0.07203747 -0.12752002 0.13449188 0.08118097 -0.15026732 -0.11585687 0.075571455
-0.11831476 0.044727422 -0.10877781 0.1610949 -0.15396266 0.15089215 0.15001151 -0.09303946
0.037003446 -0.06749558 0.09944937 -0.110075496 0.12959556 0.11205094 0.09918055 0.13583362
-0.097254835 0.045315795 -0.1399328 0.09663638 0.12365997 0.109133564 -0.13727684 0.09339081
0.06993429 0.1038101 -0.10071332 0.116436 0.16838542 0.08746984 0.1292543 0.05440592
-0.11863755 0.083933316 0.14902604 0.09181545 0.063074835 0.074336044 -0.09234814 0.07485281
0.12189226 0.085285835 0.10249248 0.06289825 0.050910458 0.084491074 -0.06375535 0.1567079
-0.124231614 0.10769607 0.10716977 0.12687145 0.12023505 0.10099332 0.084864505 0.0915574

c_fc2|bias f4 [6]
00000000: 54b7 183e cf3a 5d3d e345 4bbe e340 103e
00000010: ae80 173e e66a 11be
0.14913684 0.054011162 -0.19850878 0.14087252 0.14795181 -0.14200935
